…
WARNING:tensorflow:From /users/PAS2671/kabir36/.conda/envs/ns_project_2/lib/python3.6/site-packages/keras/backend/tensorflow_backend.py:422: The name tf.global_variables is deprecated. Please use tf.compat.v1.global_variables instead.

******************** DAP ********************
**********  round  0
load and test: shapes for train and test, X/Y
(30862, 315)
(30862, 2)
(6132, 315)
(6132, 2)
(30862, 8, 25)
(30862, 14)
(30862, 100)
(30862,)
Model: "model_1"
__________________________________________________________________________________________________
Layer (type)                    Output Shape         Param #     Connected to                     
==================================================================================================
geo_code (InputLayer)           (None, 1)            0                                            
__________________________________________________________________________________________________
main_input (InputLayer)         (None, 8, 25)        0                                            
__________________________________________________________________________________________________
embedding_1 (Embedding)         (None, 1, 128)       119680      geo_code[0][0]                   
__________________________________________________________________________________________________
lstm_1 (LSTM)                   (None, 8, 128)       78848       main_input[0][0]                 
__________________________________________________________________________________________________
geohash_input (InputLayer)      (None, 14)           0                                            
__________________________________________________________________________________________________
nlp_input (InputLayer)          (None, 100)          0                                            
__________________________________________________________________________________________________
flatten_1 (Flatten)             (None, 128)          0           embedding_1[0][0]                
__________________________________________________________________________________________________
lstm_2 (LSTM)                   (None, 128)          131584      lstm_1[0][0]                     
__________________________________________________________________________________________________
dense_1 (Dense)                 (None, 128)          1920        geohash_input[0][0]              
__________________________________________________________________________________________________
dense_2 (Dense)                 (None, 128)          12928       nlp_input[0][0]                  
__________________________________________________________________________________________________
dense_3 (Dense)                 (None, 128)          16512       flatten_1[0][0]                  
__________________________________________________________________________________________________
concatenate_1 (Concatenate)     (None, 512)          0           lstm_2[0][0]                     
                                                                 dense_1[0][0]                    
                                                                 dense_2[0][0]                    
                                                                 dense_3[0][0]                    
__________________________________________________________________________________________________
dense_4 (Dense)                 (None, 512)          262656      concatenate_1[0][0]              
__________________________________________________________________________________________________
dense_5 (Dense)                 (None, 256)          131328      dense_4[0][0]                    
__________________________________________________________________________________________________
batch_normalization_1 (BatchNor (None, 256)          1024        dense_5[0][0]                    
__________________________________________________________________________________________________
activation_1 (Activation)       (None, 256)          0           batch_normalization_1[0][0]      
__________________________________________________________________________________________________
dropout_1 (Dropout)             (None, 256)          0           activation_1[0][0]               
__________________________________________________________________________________________________
dense_6 (Dense)                 (None, 64)           16448       dropout_1[0][0]                  
__________________________________________________________________________________________________
batch_normalization_2 (BatchNor (None, 64)           256         dense_6[0][0]                    
__________________________________________________________________________________________________
activation_2 (Activation)       (None, 64)           0           batch_normalization_2[0][0]      
__________________________________________________________________________________________________
dense_7 (Dense)                 (None, 2)            130         activation_2[0][0]               
==================================================================================================
Total params: 773,314
Trainable params: 772,674
Non-trainable params: 640
__________________________________________________________________________________________________
None
tracking <tf.Variable 'Variable:0' shape=() dtype=int32> tp
tracking <tf.Variable 'Variable_1:0' shape=() dtype=int32> fp
…
