…
WARNING:tensorflow:From /users/PAS2671/kabir36/.conda/envs/ns_project_2/lib/python3.6/site-packages/keras/backend/tensorflow_backend.py:422: The name tf.global_variables is deprecated. Please use tf.compat.v1.global_variables instead.

******************** DNN ********************
**********  round  0
load and test: shapes for train and test, X/Y
(26555, 314)
(26555, 2)
(5345, 314)
(5345, 2)
Model: "model_1"
_________________________________________________________________
Layer (type)                 Output Shape              Param #   
=================================================================
main_input (InputLayer)      (None, 314)               0         
_________________________________________________________________
dense_1 (Dense)              (None, 512)               161280    
_________________________________________________________________
dense_2 (Dense)              (None, 256)               131328    
_________________________________________________________________
batch_normalization_1 (Batch (None, 256)               1024      
_________________________________________________________________
activation_1 (Activation)    (None, 256)               0         
_________________________________________________________________
dropout_1 (Dropout)          (None, 256)               0         
_________________________________________________________________
dense_3 (Dense)              (None, 64)                16448     
_________________________________________________________________
batch_normalization_2 (Batch (None, 64)                256       
_________________________________________________________________
activation_2 (Activation)    (None, 64)                0         
_________________________________________________________________
dense_4 (Dense)              (None, 2)                 130       
=================================================================
Total params: 310,466
Trainable params: 309,826
Non-trainable params: 640
_________________________________________________________________
None
tracking <tf.Variable 'Variable:0' shape=() dtype=int32> tp
tracking <tf.Variable 'Variable_1:0' shape=() dtype=int32> fp
tracking <tf.Variable 'Variable_2:0' shape=() dtype=int32> tp
…
